Notebook/palindromes_model_state_dict.pt (torch, 576583 bytes, 54 tensors)

embed.W_E f4 [13, 56]
0	0x3c195004	0.009357456
1	0x3d94c12f	0.07263409
2	0xbe02fff1	-0.12792946
3	0xbd081e99	-0.033232305
4	0x3dff9012	0.12478651
5	0x3c5854c2	0.013203802
6	0x3d7d7907	0.061883
7	0xbd3b3fd3	-0.045715164
8	0xbdb6a44c	-0.08918056
9	0xbdb7b46e	-0.08969961
10	0x3c94ea9b	0.018178275
11	0x3e237097	0.15960918
12	0x3c9ab4ae	0.018884983
13	0x3dd9b3d9	0.10630006
14	0xbd67a403	-0.0565529
15	0xbdeadec5	-0.11468271
16	0x3e552beb	0.20817535
17	0xbdeafe96	-0.1147434
18	0x3cd11fec	0.025527917
19	0xbba0ceac	-0.0049074497
20	0x3cb4b090	0.022056848
21	0x3d48e8ab	0.049050014
22	0xbcb02ace	-0.021504786
23	0x3dc1b81d	0.09458945
24	0x3d4fe58d	0.050756026
25	0xbe577063	-0.21038966
26	0x3cffde3c	0.0312339
27	0xbcbc85b2	-0.02301297
28	0x3e182f92	0.14861897
29	0x3c40fea0	0.011779457
30	0x3d977952	0.07396187
31	0xbd835f13	-0.06414618
32	0x3e39cdfb	0.18144982
33	0xbd9fbfcc	-0.07800254
34	0x3d589dec	0.05288498
35	0x3e8921aa	0.26783496
36	0x3ccb1b8d	0.02479341
37	0x3df7a013	0.120910786
38	0xbe17b26b	-0.14814155
39	0x3e2dbbf9	0.16966237
40	0xbd8dbe1a	-0.069210246
41	0x3db036a6	0.08604173
42	0x3d6e044b	0.058109563
43	0x3e2954dc	0.16536278
44	0xbd911fe4	-0.07086161
45	0xbce62d4c	-0.028097771
46	0x3c605dc4	0.0136942305
47	0xbd22d2d8	-0.039751858
48	0xbd338660	-0.04382932
49	0xbdc041e9	-0.09387571
50	0x3d3cb3a5	0.04606976
51	0xbdac34f9	-0.08408541
52	0x3df32d84	0.11873916
53	0xbc95763e	-0.018244859
54	0x3dd30367	0.10303383
55	0x3dbb5ad6	0.09148185
56	0x3cd795d6	0.026316565
57	0xbcbfe49d	-0.023424441
58	0xbdcbfa97	-0.099599056
59	0xbe8bf28c	-0.27333486
60	0xbdea1fc4	-0.1143184
61	0x3abbf955	0.0014341275
62	0x3de6eb6e	0.112753734
63	0xbe9674bc	-0.29385936
64	0x3e1a991c	0.15097469
65	0xbe499ccd	-0.19688721
66	0xbe3cd3b6	-0.18440136
67	0x3d27ceb8	0.040968627
68	0x3ea0af77	0.3138387
69	0x3dfbcfcf	0.12295496
70	0xbdd39931	-0.10331953
71	0x3b78ef4a	0.0037984424
72	0x3e14066d	0.14455576
73	0xbd43b28a	-0.04777769
74	0xbd1f555a	-0.038899757
75	0x3e147ced	0.1450078
76	0x3e9c927c	0.3058051
77	0x3e359a51	0.17734648
78	0xbda14bd0	-0.07875788
79	0x3d99bfa9	0.075072594
80	0x3d260247	0.040529516
81	0x3c88a979	0.016682373
82	0xbdb46f3a	-0.08810277
83	0xbe1adf4e	-0.15124246
84	0xbd48133f	-0.04884648
85	0xbd43412e	-0.047669582
86	0x3d6a2cd0	0.057171643
87	0x3e537c82	0.20652965
88	0x3e5a1395	0.21296532
89	0xbe2fd9e7	-0.17172967
90	0xbd9835ff	-0.07432174
91	0xbdaa34cc	-0.083108515
92	0x3e44d018	0.19220006
93	0x3dcc6a94	0.09981266
94	0xbe831a52	-0.25606018
95	0x3e019382	0.12653926
96	0xbc62c8e1	-0.013841839
97	0x3d6c2337	0.05765077
98	0x3cba20ba	0.022720683
99	0xbd54cb33	-0.0519516
100	0x3d883143	0.06650021
101	0xbd70aa6b	-0.058756273
102	0xbe5c0d23	-0.21489386
103	0x3d6d30a7	0.057907727
104	0x3e32b675	0.17452414
105	0xbdbaf4af	-0.09128701
106	0x3d827629	0.063701935
107	0xbdb8f4b4	-0.090310484
108	0xbe7b3376	-0.2453135
109	0x3dc15bed	0.094413616
110	0xbca219fc	-0.019787781
111	0x3dd6c149	0.10486085
112	0xbcbe8ebc	-0.02326142
113	0xbe5b7de8	-0.21434748
114	0x3d597387	0.05308869
115	0x3e3ea66e	0.18618175
116	0x3da40075	0.080079
117	0x3d10bca5	0.035336155
118	0x3dfbef46	0.12301497
119	0x3db98752	0.090590134
120	0x3e29961d	0.1656117
121	0xbd668534	-0.056279376
122	0x3df7334f	0.12070333
123	0xbbb7c6cb	-0.0056084148
124	0x3db1d962	0.086840406
125	0x3dc3d139	0.095613904
126	0x3cd42880	0.025898218
127	0x3d55eabd	0.052225817
128	0xbe21e8c6	-0.15811452
129	0x398e6a68	0.0002716363
130	0xbdc16d11	-0.09444631
131	0xbd0e5cc8	-0.03475645
132	0x3dea7cfd	0.11449621
133	0x3d06f34d	0.032946873
134	0xbd8aa2f9	-0.06769366
135	0xbd807241	-0.06271792
136	0x3cba6a6b	0.022755822
137	0xbdb9cf08	-0.09072691
138	0xbd9e80e8	-0.07739431
139	0x3d075da7	0.0330483
140	0x3da75f48	0.0817247
141	0x3da91737	0.08256381
142	0x3da16f14	0.078825146
143	0x3d6f9106	0.058487915
144	0xbdc1d0a7	-0.094636254
145	0x3c688f34	0.014194299
146	0xbe16696c	-0.14688653
147	0xbd877c36	-0.06615488
148	0x3e4de340	0.2010622
149	0xbd1a186c	-0.037620947
150	0xbe140ea4	-0.1445871
151	0xbd29c704	-0.04144956
152	0xbe6bebf2	-0.23039225
153	0xbd6a36a6	-0.057181023
154	0xbd2981a0	-0.041383386
155	0x3cf2871e	0.029605445
156	0xbe746741	-0.23867513
157	0x3e421695	0.18953927
158	0x3c68deb5	0.014213254
159	0xbe5a7fdd	-0.21337838
160	0xbe3113d0	-0.17292714
161	0xbd5f542b	-0.05452363
162	0x3e2c1664	0.16805416
163	0xbb313691	-0.002704058
164	0xbd88ac8c	-0.06673536
165	0x3e183927	0.14865552
166	0x3e1d8588	0.1538297
167	0xbd8a71ee	-0.067600116
168	0x3d353b0c	0.044245765
169	0x3cdfc92a	0.027317602
170	0xbc601205	-0.013676171
171	0xbe2b3b40	-0.16721821
172	0x3e676661	0.22597648
173	0xbe32c94f	-0.17459606
174	0x3e3c17d6	0.18368468
175	0xbddcd6ef	-0.10783183
176	0xba60b94b	-0.00085725327
177	0xbd944079	-0.0723886
178	0x3cef7df1	0.029234858
179	0xbdb7a315	-0.08966652
180	0xbe205f28	-0.15661299
181	0x3e15c942	0.14627555
182	0x3e0b0f76	0.13580117
183	0xbdb181b0	-0.08667314
184	0x3e4166b7	0.18886839
185	0xbe1c90eb	-0.15289657
186	0x3e084b9f	0.13310097
187	0xbdbda399	-0.092597194
188	0xbd08973a	-0.033347346
189	0x3d35d4aa	0.044392265
190	0xbc048cf7	-0.008090249
191	0xbe0e1a6b	-0.13877265
192	0x3e170bff	0.1475067
193	0x3e847fda	0.25878793
194	0xbdb8aef7	-0.09017747
195	0x3e30672c	0.17226857
196	0xbb99bfe0	-0.0046920627
197	0xbdd779dc	-0.1052129
198	0xbc2f3699	-0.010694169
199	0xbbb42b25	-0.0054983073
200	0xbe8ef6c7	-0.2792265
201	0xbd82a811	-0.063797124
202	0x3e020738	0.12698066
203	0x3e170429	0.1474768
204	0xbe08d19d	-0.13361211
205	0xbae56a2f	-0.0017502959
206	0x3b918119	0.0044404385
207	0x3cac7100	0.021049976
208	0xbd1c6dac	-0.03819053
209	0xbcaf8a81	-0.021428348
210	0x3d7e7fcb	0.06213359
211	0x3dff00a7	0.12451296
212	0x3e140141	0.14453603
213	0x3d4f2834	0.05057545
214	0xbd398a52	-0.04529793
215	0xbd18f8b6	-0.037346564
216	0x39e2ec64	0.00043282204
217	0x3e0de2fb	0.13856117
218	0x3d34abc1	0.04410911
219	0xbdc85d36	-0.097834036
220	0xbdcf8758	-0.10133237
221	0xbd8263f1	-0.063667186
222	0xbddfe693	-0.109326504
223	0xbdb1a4b2	-0.08673991
224	0x3c2035b2	0.009778427
225	0xbd88966b	-0.06669315
226	0x3d447436	0.04796239
227	0x3e5e91ee	0.21735355
228	0xbe8416d8	-0.25798678
229	0xbd6f38e7	-0.058403876
230	0x3e3ebe96	0.1862739
231	0xbc836447	-0.016039027
232	0x3d47698d	0.048684645
233	0x3dce7091	0.10080064
234	0xbd73ceb4	-0.0595233
235	0xbd0d37e8	-0.034477144
236	0x3d8a1174	0.0674161
237	0x3c0081e8	0.007843472
238	0xbda93577	-0.08262151
239	0xbcc87263	-0.024468606
240	0x3c934a66	0.017979812
241	0xbd17b29a	-0.037035562
242	0x3e57565a	0.21029034
243	0xbe30a237	-0.1724938
244	0x3d98a5d4	0.07453504
245	0x3d0a9948	0.033837587
246	0x3e120d0d	0.14262791
247	0xbd760603	-0.060064327
248	0xbd068d17	-0.032849398
249	0x3c4bdc61	0.012442679
250	0x3e1e6332	0.15467528
251	0xbce8ab31	-0.028401943
252	0x3c9e3944	0.019314416
253	0xbdd500ad	-0.104005195
254	0x3c3e3755	0.011609872
255	0xbd9b8a58	-0.07594746

pos_embed.W_pos f4 [42, 56]
0	0xbc8cea02	-0.017201427
1	0x3e4140ea	0.18872419
2	0xbdf0f584	-0.117655784
3	0xbd3137a5	-0.043265957
4	0xbd1cba17	-0.038263407
5	0x3d9f8680	0.07789326
6	0xbd101890	-0.035179675
7	0xbe0ef29c	-0.13959736
8	0xbe785443	-0.24250893
9	0xbe119779	-0.14217938
10	0x3d881fac	0.06646666
11	0xbdbc7ade	-0.092031226
12	0x3dca28a0	0.0987103
13	0x3de11bc0	0.10991621
14	0x3dabfc31	0.08397711
15	0xbdabde80	-0.08392048
16	0x3d593b7b	0.05303524
17	0xbdfe745a	-0.12424536
18	0x3e114184	0.14185148
19	0x3e2ccf85	0.16876037
20	0x3df9c5f9	0.121959634
21	0xbe9bb6ec	-0.30412996
22	0x3d8f4a4e	0.06996594
23	0x3db38fbf	0.08767652
24	0x3e2f9399	0.17146148
25	0xbe02060e	-0.12697622
26	0x3d7bff94	0.061523035
27	0xbd126145	-0.035737295
28	0x3d9c05f7	0.07618325
29	0xbe3e3289	-0.18573965
30	0x3e3250ed	0.17413683
31	0x3e3ceac8	0.18448937
32	0x3d58db88	0.052943736
33	0x3ceaeb1d	0.028676564
34	0x3de3d64b	0.111248575
35	0x3cd72278	0.026261553
36	0xbe4cd328	-0.20002425
37	0xbdad3211	-0.08456815
38	0xbdcd04c9	-0.10010678
39	0xbc018a57	-0.007906518
40	0x3c472a1a	0.012156034
41	0x3d74c3a3	0.059756886
42	0x3ae573c6	0.0017505817
43	0x3b816e71	0.003949933
44	0x3e2c8422	0.1684728
45	0xbd6278ed	-0.055291105
46	0x3dcf6180	0.101260185
47	0xbdac9f01	-0.08428765
48	0xbd53f722	-0.051749356
49	0xbdc6a429	-0.0969928
50	0x3d0a7beb	0.033809584
51	0x3dac3b98	0.08409804
52	0xbcb18ed7	-0.021674557
53	0x3cb22c94	0.021749772
54	0x3c6b237f	0.014351725
55	0xbd60dd20	-0.05489838
56	0x3dd50b96	0.104026005
57	0x3dc41abd	0.095754124
58	0xbd00395d	-0.031304706
59	0x3cafc568	0.021456435
60	0x3d696454	0.056980446
61	0xbda96e90	-0.08273041
62	0xbd9a3335	-0.07529298
63	0x3d9208a3	0.071305536
64	0x3d7cc608	0.061712295
65	0x3e1187ca	0.14211956
66	0xbe033378	-0.12812603
67	0x3e0f54a9	0.13997139
68	0xbd2e8615	-0.04260834
69	0x3ce8e92a	0.028431494
70	0x3db52c3d	0.088463284
71	0xbe1f6297	-0.15564953
72	0xbd82107a	-0.06350799
73	0x3dfd8dc3	0.123805545
74	0x3be50de0	0.0069901794
75	0xbdee29d7	-0.11629074
76	0xbbca092e	-0.006165645
77	0x3db5e782	0.08882047
78	0x3de6f4c8	0.11277157
79	0x3e97b4d8	0.2963016
80	0x3e177a5c	0.1479277
81	0x3c5f5b2f	0.01363258
82	0xbc1c3ad2	-0.009535508
83	0x3d396798	0.04526481
84	0xbd140c51	-0.03614456
85	0xbc26cdc5	-0.010180895
86	0xbdc7dc8b	-0.09758862
87	0x3cda905f	0.02668017
88	0x3acde68e	0.001570897
89	0xbcb5cce3	-0.022192424
90	0x3de64338	0.1124329
91	0x3d091625	0.033468384
92	0x3da9c9bb	0.0829043
93	0xbcc88a1a	-0.024479914
94	0x3d8b7dc3	0.068110965
95	0xbcbf4af3	-0.023351168
96	0xbc904848	-0.017612591
97	0x3daa1c6e	0.08306204
98	0xbd54825f	-0.051882144
99	0x3e2869cc	0.16446608
100	0x3db3f18e	0.08786307
101	0x3dbb41f5	0.0914344
102	0x3ddacc96	0.10683553
103	0x3d61f3dd	0.055164207
104	0xbd1301c9	-0.035890374
105	0x3ca13fad	0.019683683
106	0xbdbfd075	-0.09365932
107	0xba40b0d5	-0.0007350569
108	0x3ce2b851	0.02767578
109	0x3d459dca	0.048246183
110	0x3d1bab95	0.03800543
111	0xbda868fb	-0.082231484
112	0x3d6ea0ce	0.058258824
113	0xbe2c5454	-0.16829044
114	0x3ea80f87	0.32824346
115	0x3e159950	0.14609265
116	0x3e16bb37	0.14719854
117	0xbe045c90	-0.12925935
118	0xbd3bd6fb	-0.04585932
119	0xbd68e29c	-0.056856737
120	0x3e52c807	0.20584117
121	0x3e044c47	0.12919722
122	0xbc04306d	-0.008068186
123	0x3c1fc8e8	0.00975249
124	0xbd8015d1	-0.06254161
125	0x3db565bf	0.08857297
126	0x3e0cb91e	0.13742492
127	0x3d94beef	0.0726298
128	0x3dd92e4b	0.10604533
129	0x3d373622	0.04472936
130	0x3e0fd377	0.14045511
131	0x3e287b05	0.16453178
132	0x3ca23d66	0.019804668
133	0x3c6d5803	0.014486316
134	0xbdddbcb8	-0.10827011
135	0x3d7dbab4	0.061945632
136	0xbe3da873	-0.1852129
137	0xbe1e0651	-0.15432097
138	0xbdc535d8	-0.096294105
139	0x3dfba3b2	0.12287082
140	0x3dfba52e	0.12287365
141	0xbd9cbb7f	-0.076529495
142	0x3cbb392a	0.022854406
143	0xbcd43d14	-0.02590803
144	0x3e66712c	0.22504109
145	0x3d5b8db7	0.053601947
146	0xbe2ce6f2	-0.16884974
147	0xbb3f68dd	-0.002920679
148	0xbd35d724	-0.044394627
149	0x3d15a51f	0.036534425
150	0x3e27a2cb	0.16370694
151	0xbdf07e75	-0.1174287
152	0x3e437ae4	0.19089848
153	0x3d2fbd82	0.042905338
154	0x3e613b53	0.21995287
155	0xbd2eac3c	-0.042644724
156	0x3df6dac7	0.12053447
157	0xbdd32553	-0.103098534
158	0x3e27ff2c	0.16405934
159	0x3c17776d	0.009244782
160	0x3cabb5b5	0.020960668
161	0xbe174ac3	-0.14774613
162	0xbdd5ced6	-0.104398414
163	0xbd5c936a	-0.053851523
164	0xbd97aecc	-0.07406387
165	0xbce331c3	-0.02773369
166	0x3d8bab6d	0.06819806
167	0xbcaba263	-0.020951455
168	0xbd6df9da	-0.058099605
169	0xbde69349	-0.11258561
170	0xbc82de24	-0.015975066
171	0xbc9e6d72	-0.019339297
172	0x3d28d7f2	0.041221566
173	0x3d2075d7	0.03917488
174	0xbde64347	-0.11243301
175	0x3decebbf	0.115684025
176	0x3d79aa26	0.06095328
177	0x3e1079f2	0.14109018
178	0xbc4cdedf	-0.0125043085
179	0xbe1ed329	-0.15510239
180	0xbdcfe4df	-0.101510756
181	0x3e0e9e93	0.13927679
182	0xbe1bccbf	-0.15214823
183	0x3dfeb1a3	0.12436225
184	0x3b127220	0.0022345856
185	0xbd832e52	-0.06405319
186	0x3dce9317	0.10086649
187	0xbde497f6	-0.11161797
188	0xbdba5196	-0.090975925
189	0xbe6cb880	-0.23117256
190	0xbd5e7a64	-0.05431594
191	0x3d968337	0.07349246
192	0x3d0c113e	0.03419613
193	0xbdfbd187	-0.122958235
194	0x3e1eda92	0.15513065
195	0xbde11180	-0.10989666
196	0xbd832454	-0.064034134
197	0x3db5c0b6	0.08874647
198	0x3e279595	0.16365655
199	0xbd13c161	-0.036073092
200	0x3da34041	0.0797124
201	0x3e98efec	0.29870546
202	0x3e3dc88b	0.18533532
203	0x3d24c938	0.04023096
204	0x3d516e6c	0.051130697
205	0x3d2d028b	0.042238753
206	0x3d6978f0	0.0570001
207	0xbd037a62	-0.032099135
208	0xbd7a7a49	-0.061151776
209	0x3d359a6b	0.044336718
210	0x3cbe98f1	0.023266288
211	0x3da9d76e	0.08293043
212	0xbd2aa0fb	-0.04165743
213	0xbd998b59	-0.074972816
214	0xbb31774a	-0.0027079158
215	0xbd93345d	-0.07187722
216	0x3cbb593b	0.022869697
217	0x3dbffeaa	0.09374745
218	0xbdd1b5dd	-0.10239766
219	0x3d90af02	0.0706463
220	0xbd9d4732	-0.07679595
221	0x3d2bcc89	0.041943107
222	0xbca7ae68	-0.020468906
223	0xbe07e6d1	-0.13271643
224	0x3d8e9641	0.069622524
225	0x3d613d23	0.054989945
226	0xbd19f7ee	-0.03758996
227	0x3c315e63	0.010825726
228	0xbe037815	-0.12838776
229	0xbc6717ec	-0.0141048245
230	0x3ded1870	0.11576927
231	0xbe005f9b	-0.1253647
232	0xbdec9b69	-0.1155308
233	0x3d6e114f	0.058121976
234	0x3d632c48	0.05546215
235	0x3e110236	0.14161
236	0xbde93989	-0.11387927
237	0xbe12975a	-0.14315549
238	0x3dad98c1	0.08476401
239	0x3d7aef7b	0.061263543
240	0xbe3cf3d5	-0.1845239
241	0xbe1709d0	-0.14749837
242	0xbc596fe4	-0.013271306
243	0x3d9ced8a	0.076624945
244	0xbd8c18f5	-0.06840698
245	0xbdf599c7	-0.11992221
246	0xbdc11343	-0.09427502
247	0x3cbaa4ed	0.02278372
248	0x3d21877b	0.039435845
249	0x3d9e54ec	0.07731041
250	0x3dac58c8	0.08415371
251	0xbca37d63	-0.01995725
252	0xbd3ab104	-0.04557897
253	0x3de2c5b6	0.110728666
254	0xbe05251e	-0.1300244
255	0x3b3ba3fb	0.0028631676

blocks.0.ln1.w f4 [56]
0	0x3f6f33d1	0.9343844
1	0x3f74ba45	0.95596725
2	0x3f71c3d3	0.9443943
3	0x3f776622	0.9664022
4	0x3f7d5869	0.9896303
5	0x3f6c41e3	0.92288035
6	0x3f7ffec8	0.9999814
7	0x3f6cd573	0.925132
8	0x3f78d1b7	0.97195
9	0x3f812d82	1.0092013
10	0x3f7ff16d	0.9997776
11	0x3f790862	0.97278416
12	0x3f78b094	0.97144437
13	0x3f75826a	0.9590212
14	0x3f6e95f2	0.9319755
15	0x3f73c8df	0.9522838
16	0x3f69bed9	0.91306835
17	0x3f77ff45	0.96873885
18	0x3f78220d	0.9692696
19	0x3f71a2aa	0.9438883
20	0x3f7ad842	0.97986233
21	0x3f78516c	0.9699924
22	0x3f764cd4	0.9621098
23	0x3f71c0c7	0.9443478
24	0x3f78c0aa	0.9716898
25	0x3f71e3d0	0.9448824
26	0x3f7f7b4f	0.9979753
27	0x3f739790	0.9515314
28	0x3f764e6c	0.9621341
29	0x3f6b65f6	0.91952455
30	0x3f7bac79	0.9831005
31	0x3f8091c4	1.0044484
32	0x3f78e810	0.972291
33	0x3f72142b	0.94562024
34	0x3f81f4d5	1.0152842
35	0x3f6e8223	0.9316732
36	0x3f67c242	0.9053079
37	0x3f6f7c5f	0.9354915
38	0x3f705f3d	0.9389532
39	0x3f7605bc	0.961025
40	0x3f6926fb	0.91075104
41	0x3f79cedb	0.9758126
42	0x3f7418e2	0.9535047
43	0x3f709968	0.9398408
44	0x3f64754e	0.8924149
45	0x3f727f98	0.9472594
46	0x3f769a40	0.96329117
47	0x3f6aa0b5	0.9165147
48	0x3f72b467	0.9480652
49	0x3f758a52	0.95914185
50	0x3f6e3ae5	0.93058616
51	0x3f77fd3a	0.9687077
52	0x3f735194	0.95046353
53	0x3f733a0c	0.9501045
54	0x3f775520	0.96614265
55	0x3f754975	0.9581521

blocks.0.ln1.b f4 [56]
0	0xbc90c19e	-0.017670449
1	0x3d21c35d	0.039492954
2	0xbc9476e1	-0.018123092
3	0xbbd2cd8d	-0.006433195
4	0xbc349fad	-0.011024398
5	0x3c0513b7	0.008122376
6	0xbc25e2d8	-0.010124885
7	0xbc444e04	-0.011981491
8	0xbcd0f62a	-0.025508005
9	0xbbb0a4ee	-0.005390755
10	0x39838dbd	0.0002509187
11	0x3cfba868	0.03071995
12	0xbb377e2b	-0.0027998786
13	0xbc9c0263	-0.019044107
14	0xbbc4afc6	-0.006002399
15	0x3c1ae5f3	0.009454238
16	0x3d888bd4	0.06667295
17	0x39488b3a	0.00019125352
18	0x3c714ae0	0.014727324
19	0x3cdc42f4	0.026887394
20	0x388c961a	6.703679e-05
21	0x3ac424a1	0.001496453
22	0x3cea6974	0.028614737
23	0xbc47692a	-0.012171069
24	0x3b091198	0.0020915028
25	0x3d5929d8	0.05301842
26	0xbc63e268	-0.01390896
27	0x3bcf894f	0.006333507
28	0x3c6b17bd	0.014348921
29	0xbca778dc	-0.020443372
30	0xbb2c4fc7	-0.0026292668
31	0xbc458672	-0.01205598
32	0x3b4c0828	0.0031132791
33	0xbc53478e	-0.012895478
34	0x3b9359f6	0.004496808
35	0x3a1b0b74	0.00059144874
36	0xbd0860cb	-0.033295434
37	0x3d16fcbe	0.036862127
38	0x3be3307e	0.006933271
39	0x3ca4aae6	0.020101022
40	0x3d5d3622	0.054006703
41	0x3b7f369d	0.0038942464
42	0xbc91c5f9	-0.017794596
43	0xbbb8c372	-0.0056385333
44	0x3d0dc100	0.034607887
45	0xbab29e15	-0.0013627434
46	0xbbe8c7f1	-0.007103913
47	0x3be642ec	0.0070270207
48	0xbc007f77	-0.00784289
49	0xbcaee42b	-0.021349033
50	0xbb89d1d0	-0.00420592
51	0xbadc455f	-0.0016805342
52	0x3c2d5cc2	0.010581197
53	0xbc9e062b	-0.01929005
54	0xbbf8d18b	-0.007593339
55	0x3bdd37e3	0.006751047

blocks.0.ln2.w f4 [56]
0	0x3f77c06b	0.9677798
1	0x3f72946c	0.94757724
2	0x3f701992	0.9378902
3	0x3f6e31eb	0.9304492
4	0x3f7151f6	0.9426569
5	0x3f727ef6	0.94724977
6	0x3f75f74f	0.9608049
7	0x3f719a3d	0.94375974
8	0x3f7a7b95	0.9784482
9	0x3f7ad260	0.97977257
10	0x3f80bfb2	1.0058501
11	0x3f7d2a31	0.98892504
12	0x3f6c3c19	0.922792
13	0x3f7288d1	0.94740015
14	0x3f7296d8	0.9476142
15	0x3f8190ce	1.0122316
16	0x3f769b29	0.96330506
17	0x3f79af47	0.97533077
18	0x3f7bb1bc	0.98318076
19	0x3f7601ee	0.96096694
20	0x3f716ba3	0.94304866
21	0x3f7cff96	0.98827493
22	0x3f7962ff	0.9741668
23	0x3f6d33b0	0.92656994
24	0x3f715098	0.942636
25	0x3f6ae3c6	0.91753805
26	0x3f803837	1.0017155
27	0x3f6ebd63	0.9325773
28	0x3f722254	0.9458363
29	0x3f7a0b82	0.9767381
30	0x3f72e291	0.9487696
31	0x3f7d321a	0.98904574
32	0x3f772ed2	0.9655582
33	0x3f796799	0.974237
34	0x3f71353d	0.9422186
35	0x3f7784d0	0.9668703
36	0x3f76374a	0.96178114
37	0x3f7e5708	0.9935155
38	0x3f77e27c	0.9682996
39	0x3f7bbff1	0.98339754
40	0x3f6fdc7b	0.936958
41	0x3f721c58	0.945745
42	0x3f773fc9	0.96581703
43	0x3f6f4463	0.93463725
44	0x3f7a0bd2	0.97674286
45	0x3f8161eb	1.0108007
46	0x3f6fd8dd	0.9369028
47	0x3f801228	1.0005541
48	0x3f7fe7d8	0.9996314
49	0x3f71fdbc	0.9452779
50	0x3f69740a	0.91192687
51	0x3f7b36a9	0.9813028
52	0x3f7142fd	0.9424284
53	0x3f744b29	0.95427185
54	0x3f75311e	0.9577807
55	0x3f739204	0.9514468

blocks.0.ln2.b f4 [56]
0	0xbc57ced3	-0.013171869
1	0xbc897070	-0.016777247
2	0x3c50b663	0.012738797
3	0xbbffe03f	-0.0078087146
4	0x3beaf75b	0.0071706004
5	0xbc600bba	-0.013674671
6	0x3c1ca645	0.009561126
7	0xbceb7c44	-0.028745778
8	0xbd03b4e3	-0.03215493
9	0xbb04583b	-0.002019419
10	0xba18331b	-0.0005805955
11	0x3ccb9e7d	0.024855847
12	0xbd1d9185	-0.038468856
13	0xbbfd49a3	-0.0077297254
14	0x3c5c9022	0.013462098
15	0xbcc519a0	-0.02406007
16	0x3d57b088	0.052658588
17	0x3cf7d08c	0.03025081
18	0xbc73d1ea	-0.01488159
19	0x3cb3c2a8	0.021943405
20	0xbc1a3ea0	-0.009414345
21	0x3be0bc06	0.0068583516
22	0x3ad24403	0.0016041998
23	0xbc68c213	-0.014206427
24	0x3d44b806	0.04802706
25	0x3b0cab53	0.0021464422
26	0x3ad16117	0.001597437
27	0x3c828fa7	0.01593764
28	0xbc7603e1	-0.015015573
29	0x3cbbbde1	0.02291769
30	0xbc8eae58	-0.017417118
31	0xbc3f8c24	-0.011691127
32	0x3bbee7f9	0.005825993
33	0x3c0d7f66	0.008636331
34	0xbcd69896	-0.026195806
35	0x3c94ab5d	0.018148119
36	0xbc1da6b8	-0.009622268
37	0x3bc43e3b	0.0059888638
38	0xbc4fccd7	-0.012683115
39	0x3b8547e2	0.004067407
40	0x3bb99c6a	0.005664398
41	0xbd09a0fa	-0.033600785
42	0x398c7b97	0.00026794962
43	0x3c72075b	0.0147722615
44	0x3c85c851	0.01633087
45	0xbbc92b64	-0.006139206
46	0xbca8ab92	-0.020589624
47	0x3c93f5b8	0.018061504
48	0xb9a428e3	-0.0003131098
49	0x3cadb71c	0.021205477
50	0xbc6067db	-0.013696636
51	0x3ba25b53	0.0049547344
52	0xbcb31056	-0.021858376
53	0xbcbedcfb	-0.023298731
54	0x3cb0a53c	0.021563165
55	0xbc772aae	-0.015085859

blocks.0.attn.W_Q f4 [3, 56, 28]
0	0xbdd5bfbf	-0.10436963
1	0xbc79ef3c	-0.015254792
2	0x3c6280df	0.013824671
3	0x3ca4a5e1	0.020098628
4	0xbe068bd3	-0.13139276
5	0xbd27d59e	-0.040975206
6	0x3de8ffe4	0.11376932
7	0x3e0ac559	0.13551845
8	0xbc97c116	-0.018524688
9	0xbdc84a36	-0.097797796
10	0xbe081270	-0.13288283
11	0xbe610fee	-0.21978733
12	0x3d01ca01	0.031686787
13	0xbd8708f6	-0.06593506
14	0xbdc70a05	-0.09718708
15	0xbd5d9ae7	-0.054102805
16	0x3d9f1e0e	0.07769404
17	0xbda189b0	-0.0788759
18	0x3d6f2509	0.05838493
19	0x3e20cd71	0.1570337
20	0x3e2fce85	0.17168625
21	0xbc158559	-0.009126031
22	0x3d2ef4c5	0.0427139
23	0x3d99b71d	0.07505629
24	0x3ce251bc	0.027626865
25	0xbe368105	-0.17822655
26	0x3c30bf61	0.010787816
27	0xbd6e6638	-0.058202952
28	0xbd41e0bd	-0.047333468
29	0xbd83cb77	-0.06435292
30	0xbdf0dfff	-0.11761474
31	0xbd281f0a	-0.041045226
32	0xbbf607f6	-0.0075082732
33	0xbd4fd37b	-0.050738793
34	0xbe649abe	-0.22324654
35	0x3dda0d7f	0.106471054
36	0xbcfe89e4	-0.03107161
37	0xbd1b5abe	-0.037928335
38	0xbe024ead	-0.12725325
39	0xbdaea4ac	-0.085275024
40	0x3e67e4d7	0.22645889
41	0xbd9ef640	-0.07761812
42	0x3e70abe5	0.23503073
43	0x3ce32627	0.027728153
44	0xbd722610	-0.05911833
45	0x3deeaf7b	0.11654564
46	0xbb9eb698	-0.004843544
47	0xbdd7a5e7	-0.1052969
48	0xbe4630c5	-0.19354542
49	0xbcc94a9a	-0.024571706
50	0xbe30e8e5	-0.17276342
51	0xbd9ef66c	-0.07761845
52	0xbe13fd92	-0.14452198
53	0xbd145c4e	-0.03622084
54	0xbbda2553	-0.0066572814
55	0x3e129d3f	0.14317797
56	0xbd35b764	-0.044364348
57	0xbe0ded46	-0.13860044
58	0x3dda77a2	0.106673494
59	0x3e24731c	0.16059536
60	0x3a968ac5	0.0011485448
61	0x3d6b2d89	0.057416473
62	0xbdd110b9	-0.10208268
63	0xbd98b765	-0.07456855
64	0xbdfb8841	-0.12281848
65	0x3dd72c0b	0.105064474
66	0x3cc5302b	0.02407082
67	0xbc4ec89f	-0.012621074
68	0xbdf00ec5	-0.11721567
69	0xbdc3868e	-0.09547149
70	0x3e0b4bac	0.13603085
71	0xbbb34639	-0.0054710177
72	0xbd8102bb	-0.06299349
73	0x3c1a99b5	0.009436061
74	0xbdde429f	-0.10852551
75	0x3d4aaefc	0.049483284
76	0x3e6f00aa	0.23340097
77	0x3d634bb1	0.055492107
78	0x3e2536e3	0.16134219
79	0xbe1ece62	-0.15508416
80	0xbd79bd6f	-0.060971674
81	0x3e2c637d	0.16834827
82	0xbe15310d	-0.14569493
83	0x3db6559c	0.089030474
84	0x3e03a720	0.12856722
85	0xbd0e5afc	-0.03475474
86	0xbd90af08	-0.070646346
87	0x3e848513	0.25882778
88	0x3db95d69	0.0905102
89	0xbcbc0ab6	-0.022954326
90	0x3c75d863	0.015005204
91	0xbe2c0f06	-0.16802606
92	0xbe8db935	-0.27680364
93	0x3c20ec7f	0.00982201
94	0x3e0f5462	0.13997033
95	0x3e0da8dd	0.13833947
96	0xbc9b8806	-0.01898576
97	0xbcf5631f	-0.029954491
98	0xbe0a1b48	-0.1348697
99	0x3c58f227	0.013241327
100	0xbd781b49	-0.060572896
101	0xbe2a8a4e	-0.16654322
102	0x3bb5f179	0.0055524674
103	0xbcaadaa3	-0.020856207
104	0x3dac0cf3	0.08400907
105	0x3c5de34b	0.01354296
106	0xbd644ed0	-0.055739224
107	0xba580126	-0.0008239917
108	0xbcd0f325	-0.025506565
109	0x3e0d1e61	0.1378112
110	0x3cf336db	0.029689243
111	0x3db2a312	0.087225094
112	0xbd9c8cb0	-0.076440215
113	0xbd3ba580	-0.04581213
114	0x3e37a566	0.17934188
115	0xbcb4833e	-0.022035237
116	0xbd1c27d3	-0.038123917
117	0x3d1e4c78	0.038647145
118	0x3e08693f	0.13321398
119	0x3e4231b1	0.18964268
120	0x3e6f1e0f	0.2335131
121	0x3e0497e7	0.12948571
122	0x3b3f7ccb	0.002921867
123	0x3db25363	0.08707311
124	0x3d22fe31	0.039793197
125	0xbe1afb75	-0.15134986
126	0x3c42260f	0.011849894
127	0x3d66025e	0.0561546
128	0x3e3b6635	0.18300708
129	0xbdd17ca5	-0.10228852
130	0xbe474851	-0.1946118
131	0xbd4d0452	-0.05005295
132	0x3d218cb0	0.03944081
133	0xbe8c48da	-0.2739933
134	0x3e48cf70	0.19610381
135	0x3ded49f3	0.1158637
136	0x3e1a33cf	0.15058826
137	0x3e1b0b10	0.15140939
138	0x3e0d25ef	0.13784002
139	0xbdc03fa2	-0.09387137
140	0x3e2cc883	0.16873364
141	0xbd72dba2	-0.05929149
142	0x3dab143a	0.08353467
143	0xbcc3426a	-0.02383538
144	0x3d86da92	0.06584658
145	0x3d122b1c	0.035685644
146	0x3cada043	0.021194583
147	0x3cc702e0	0.024293363
148	0x3d5e8bc9	0.05433253
149	0x3e0fd3f5	0.14045699
150	0xbd4d87ca	-0.050178327
151	0xbe3f6aa6	-0.18693027
152	0xbe48dd4b	-0.19615667
153	0x3cd55732	0.026042555
154	0xbd57795f	-0.052605983
155	0xbe8371bb	-0.25672707
156	0x3d8d12ce	0.06888352
157	0xbc0ccd4d	-0.008593869
158	0x3deb6c1b	0.11495229
159	0x3d62315b	0.05522285
160	0xbe6bc6b5	-0.2302502
161	0x3dfea2cf	0.12433397
162	0x3dee42d0	0.11633837
163	0xbbdb567d	-0.00669366
164	0xbd886b41	-0.06661082
165	0xbcbbcf8b	-0.022926113
166	0xbe0872c3	-0.13325028
167	0x3e444fb2	0.19171026
168	0x3db231ed	0.08700929
169	0xbda4ba37	-0.0804333
170	0xbe1b21ac	-0.15149564
171	0xbb979cb4	-0.0046268348
172	0x3d445510	0.047932684
173	0xbe9847fa	-0.29742414
174	0xba9d937d	-0.0012022104
175	0xbe1265d9	-0.14296664
176	0x3e04b863	0.12960963
177	0xbd6971f1	-0.05699343
178	0x3e705cb9	0.23472871
179	0x3cf8a9f9	0.030354487
180	0xbe35f14a	-0.17767826
181	0xbcba9aa7	-0.022778822
182	0x3dbf92d6	0.093541786
183	0x3db549f2	0.088519946
184	0x3db9cbd8	0.09072083
185	0x3df66569	0.12031061
186	0x3e69ef49	0.22845186
187	0x3da17b53	0.0788485
188	0x3c21ff3c	0.009887513
189	0xbdb22068	-0.08697587
190	0xbd775b60	-0.060389876
191	0xbe115871	-0.14193894
192	0xbcf0f89f	-0.029415427
193	0x3ccb9aa3	0.02485401
194	0x3c969858	0.01838319
195	0xbd003649	-0.03130177
196	0x3c69b044	0.014263216
197	0x3e295382	0.16535762
198	0x3d5f3e0b	0.05450253
199	0xbe03b232	-0.12860945
200	0x3c668af5	0.014071216
201	0x3d0cb308	0.034350425
202	0xbd31a50e	-0.0433703
203	0x3d2758ea	0.04085628
204	0x3e663a97	0.22483288
205	0x3e62975f	0.22128056
206	0xbdedd0d2	-0.11612095
207	0x3d20e29c	0.03927861
208	0x3c75efcc	0.015010785
209	0x3d9ff60a	0.078106
210	0xbe5d57aa	-0.21615472
211	0xbd13e374	-0.036105588
212	0xbde4cb6a	-0.11171611
213	0x3de47d44	0.11156705
214	0xbd4128bc	-0.047157988
215	0xbd48be80	-0.0490098
216	0xbd29162d	-0.041280914
217	0xbd25adba	-0.04044888
218	0xbd6298ee	-0.055321626
219	0x3db8f0db	0.090303145
220	0x3dec455b	0.11536666
221	0x3e299f80	0.1656475
222	0xbd2302e1	-0.039797667
223	0xbdb189f1	-0.08668888
224	0xbe788bab	-0.24272029
225	0xbd975f55	-0.0739123
226	0xbd69fa50	-0.057123482
227	0x3c57522f	0.013142153
228	0x3cfa2107	0.030533327
229	0x3c935589	0.017985122
230	0xbbfd6666	-0.007733154
231	0x3d153f36	0.036437236
232	0xbd0b3779	-0.03398845
233	0x3d9d5164	0.0768154
234	0x3dc41a54	0.09575334
235	0xbc9ac29c	-0.018891625
236	0xbe3f593f	-0.18686388
237	0xbdef0678	-0.11671156
238	0xbe025afc	-0.1273002
239	0x3d9ece18	0.07754153
240	0x3d561700	0.05226803
241	0xbdf1f132	-0.118135825
242	0xbe137875	-0.1440142
243	0x3dade1e4	0.08490351
244	0xbcc5d1d4	-0.024147905
245	0xbdfb849a	-0.12281151
246	0x3dd5188d	0.10405073
247	0x3d10d106	0.03535559
248	0xbcbb97d8	-0.022899553
249	0x3dbcb28f	0.09213745
250	0xbdf22ba2	-0.118247285
251	0xbea07030	-0.31335592
252	0xbdf526c6	-0.11970286
253	0x3e1aed4e	0.15129587
254	0x3dc78445	0.09742025
255	0xbd907a51	-0.0705458

blocks.0.attn.W_K f4 [3, 56, 28]
0	0xbd97d04b	-0.074127756
1	0xbd4e15e5	-0.05031385
2	0xbe53390b	-0.20627229
3	0xbc07bc15	-0.008284588
4	0x3b21f64e	0.002471346
5	0x3ce5896f	0.028019635
6	0x3e4f03cd	0.20216294
7	0x3c3c24ad	0.011483354
8	0xbe26d1bd	-0.16290946
9	0xbcbe1eec	-0.023208104
10	0x3cf839ae	0.030300941
11	0x3e00a289	0.12562002
12	0xbe180dd1	-0.1484902
13	0xbd0ef1c7	-0.034898546
14	0xbc9130f4	-0.017723538
15	0xbd85465c	-0.065075606
16	0x3d355e0a	0.044279136
17	0xbda02da0	-0.07821202
18	0x3da377d0	0.07981837
19	0xbcf65f12	-0.03007463
20	0x3e2e1e82	0.17003825
21	0xbe81ace1	-0.2532721
22	0xbcda927c	-0.026681177
23	0xbc72457d	-0.014787075
24	0x3d405487	0.04695561
25	0xbbf82609	-0.0075728935
26	0x3d682d7e	0.05668401
27	0x3df8a316	0.12140481
28	0xbe581bab	-0.21104304
29	0x3e352326	0.1768919
30	0xbdb534df	-0.08847975
31	0xbe2b4d16	-0.16728625
32	0x3e03e08e	0.1287863
33	0xbdcfd810	-0.101486325
34	0xbe082a11	-0.13297297
35	0x3b83967f	0.0040157433
36	0x3c2935a3	0.010327729
37	0xbd95b5e2	-0.07310082
38	0x3d882ae7	0.06648808
39	0xbdb0af8d	-0.08627234
40	0x3da0340a	0.07822426
41	0xbe716dec	-0.23577088
42	0x3e8728aa	0.26398212
43	0x3d3e90ce	0.046524815
44	0xbe243903	-0.16037373
45	0xbd7bae61	-0.061445598
46	0x3d804f3b	0.06265112
47	0x3c816a7c	0.015797846
48	0x3d84a2ee	0.06476389
49	0x3d51c796	0.05121573
50	0xbc877f9b	-0.01654034
51	0x3e7561b7	0.23963057
52	0xbd81ac96	-0.06331746
53	0xbe49c03d	-0.1970224
54	0xbd9ed6f6	-0.07755844
55	0xbdaddd1f	-0.08489441
56	0x3dd69e36	0.10479395
57	0x3d818c8d	0.06325636
58	0x3d8cc099	0.068726726
59	0xbdaa5d52	-0.08318581
60	0x3d47c188	0.04876855
61	0xbcb6b9fb	-0.02230548
62	0x3cc4a341	0.024003627
63	0x3cd3b7be	0.025844451
64	0x3eb821ac	0.3596319
65	0xbd7ab028	-0.061203152
66	0x3e345ec4	0.17614275
67	0xbde99e14	-0.11407104
68	0x3e4c2cb3	0.19938926
69	0x3b4a7b2d	0.0030896172
70	0xbe3ffda5	-0.18749101
71	0x3bca9030	0.0061817393
72	0x3dcda0f5	0.10040466
73	0x3cd962d7	0.026536388
74	0xbe58a8ad	-0.21158095
75	0xbddda8aa	-0.10823186
76	0xbd51eba3	-0.05125011
77	0x3dad9eed	0.08477578
78	0xbd07c3e0	-0.033145785
79	0xbc4471ad	-0.011989993
80	0xbdfb5afa	-0.12273212
81	0x3bb51bb8	0.005526986
82	0xbd6ac63a	-0.05731795
83	0xbc3c61a9	-0.011497893
84	0x3bfab7be	0.0076512983
85	0x3ca39cf5	0.019972304
86	0x3d3cf925	0.04613604
87	0xbcebad9b	-0.028769305
88	0x3cf342f1	0.029695006
89	0x3db7dccd	0.08977661
90	0x3d89308a	0.06698711
91	0xbc6ab1c1	-0.014324606
92	0xbe0070ab	-0.1254298
93	0xbde8db84	-0.11369994
94	0x3ac44cfa	0.0014976554
95	0x3e2b4c52	0.16728333
96	0x3d9596e2	0.07304169
97	0x3b54483c	0.0032391688
98	0x3c3b9cbc	0.011450943
99	0xbdd38fcc	-0.103301615
100	0x3d9015f4	0.07035437
101	0x3e0b0417	0.13575779
102	0xbdd735cc	-0.10508308
103	0xbe765002	-0.24053958
104	0x3d5e5ea6	0.054289483
105	0xbc86220c	-0.016373657
106	0x3defb6da	0.11704798
107	0xbddabbc2	-0.10680343
108	0x3e48a234	0.19593126
109	0xbe4fb6d6	-0.2028459
110	0x3cbdf5b4	0.02318845
111	0x3cedb8e7	0.029018832
112	0x3e02dbfc	0.1277923
113	0x3c8cf3bf	0.017206071
114	0xbda57408	-0.08078772
115	0x3e03e3be	0.12879845
116	0x3d1c772d	0.038199592
117	0x3dd89308	0.10574919
118	0xbdb01c41	-0.08599139
119	0xbe0ef887	-0.13961993
120	0xbd729f73	-0.059234094
121	0xbdbe27ed	-0.09284959
122	0xbdb70be6	-0.08937816
123	0xbe1e48b1	-0.15457417
124	0x3e1892fb	0.14899819
125	0xbd438837	-0.047737326
126	0x3d3d0ebf	0.04615664
127	0xbd385775	-0.04500528
128	0x3e201b83	0.15635495
129	0xbdbf5169	-0.093417
130	0xbc95bc7d	-0.018278355
131	0xbe2853ca	-0.16438213
132	0xbdd07095	-0.10177723
133	0xbce8734d	-0.028375292
134	0xbe0159f4	-0.1263197
135	0x3daa1699	0.083050914
136	0xbe92a9f2	-0.28645283
137	0x3c84bfb5	0.016204694
138	0xbdab99cb	-0.08378943
139	0x3d105c9f	0.03524458
140	0x3d7fdfb0	0.062469184
141	0xbd1b7640	-0.03795457
142	0xbce38bb3	-0.027776575
143	0xbe0132dd	-0.12617059
144	0xbc560a83	-0.01306403
145	0xbe0ffa0a	-0.14060226
146	0x3ca3068f	0.019900588
147	0x3c96a7d6	0.018390577
148	0xbe0f5b43	-0.13999657
149	0x3c63c37a	0.013901586
150	0xb90c2b46	-0.00013367561
151	0xbd40d8ec	-0.047081873
152	0xbc73c9f6	-0.014879694
153	0xbe1876ba	-0.1488904
154	0x3e43a16b	0.19104545
155	0x3d1ec152	0.038758583
156	0x3e0ab351	0.13544966
157	0xbd1cdbc9	-0.03829554
158	0x3d7d8ae4	0.061900035
159	0x3e1d5adc	0.15366691
160	0x3d32e173	0.043672036
161	0xbd9d0110	-0.07666218
162	0x3debc6b7	0.11512511
163	0xbdeca999	-0.11555786
164	0xbd8c11e0	-0.06839347
165	0x3db5953b	0.08866354
166	0x389012d6	6.8699635e-05
167	0x3da58440	0.08081865
168	0xbd660109	-0.05615333
169	0x3da4ada0	0.08040929
170	0x3df44131	0.11926497
171	0xbe2c4de2	-0.16826585
172	0xbe0b1704	-0.13582999
173	0x3c114499	0.008866453
174	0x3db69612	0.089153424
175	0xbc9c22ce	-0.019059565
176	0x3d182487	0.03714421
177	0x3d9b1c09	0.07573707
178	0xbd1e7b07	-0.038691547
179	0x3d2c2b42	0.04203344
180	0xbccc1e28	-0.024916723
181	0x3ccee9be	0.025257941
182	0xbe29dc0f	-0.16587852
183	0xbe06fe53	-0.13182954
184	0xbd28935a	-0.04115615
185	0xbe142791	-0.14468218
186	0x3e02dfd3	0.12780695
187	0x3dab677b	0.08369347
188	0xbe36e16a	-0.17859426
189	0x3d88ed5d	0.066858985
190	0xbcf5e67b	-0.030017128
191	0x3e001885	0.12509353
192	0x3e6f8185	0.23389252
193	0xbea6249d	-0.3244981
194	0xbc1b0516	-0.009461662
195	0xbd8ac02a	-0.06774934
196	0x3d393e4c	0.045225427
197	0xb9e77cf1	-0.00044152842
198	0xbdb86820	-0.09004235
199	0xbdbec941	-0.0931573
200	0xbd6b1ef2	-0.05740256
201	0x3d955311	0.07291234
202	0xbd895980	-0.06706524
203	0xbcb849e8	-0.022496179
204	0xbe92f6c1	-0.28703883
205	0x3cc379b4	0.023861744
206	0x3d9058e8	0.070482075
207	0x3d1b0cd2	0.037854023
208	0x3d8ad488	0.06778818
209	0xbb8bd54d	-0.004267371
210	0xbe48febb	-0.19628422
211	0x3e35e287	0.17762195
212	0xbd81e80b	-0.06343087
213	0x3dc09677	0.09403699
214	0x3d4f13b6	0.050555907
215	0x3d805334	0.0626587
216	0xbd08cec2	-0.033400305
217	0x3d9ce213	0.07660308
218	0xbd8e1fb1	-0.069396384
219	0xbd287b03	-0.041132938
220	0xbd05cbb3	-0.032664966
221	0x3dcd7ce1	0.100335844
222	0xbc1fc1c0	-0.009750783
223	0x3e1a1292	0.15046147
224	0x3e673e74	0.22582418
225	0xbd99a399	-0.07501907
226	0xbd4465c3	-0.04794861
227	0xbcc354da	-0.023844171
228	0xbc60f1df	-0.013729542
229	0xbcabc735	-0.020969013
230	0x3d812911	0.06306661
231	0xbe21147b	-0.15730469
232	0x3e4f159a	0.20223084
233	0x3e08aa5a	0.13346234
234	0x3df8e8a1	0.121537454
235	0xbe9dfe24	-0.30857956
236	0xbd3f6ff6	-0.046737634
237	0x3d916d5e	0.07100938
238	0x3e12f728	0.14352095
239	0x3e68c757	0.22732292
240	0x3e34135e	0.17585513
241	0x3daaf262	0.08347012
242	0xbce9ee33	-0.028555965
243	0x3dfdaf00	0.12386894
244	0xbcded696	-0.027201932
245	0x3dd6821b	0.104740344
246	0x3c2ea5c7	0.010659642
247	0xbe914a00	-0.2837677
248	0xbd5549fa	-0.052072503
249	0xbdf4cec7	-0.11953502
250	0x3d36cb51	0.04462749
251	0xbdee2426	-0.116279885
252	0xbd156e15	-0.036481936
253	0xbd14ebb8	-0.03635761
254	0xbdb2c3e6	-0.08728771
255	0x3911f6e9	0.00013920259

blocks.0.attn.W_V f4 [3, 56, 28]
0	0x3cedf4ae	0.029047336
1	0x3d86fc50	0.065910935
2	0xbda08b9e	-0.0783913
3	0x3d0af5f6	0.033925973
4	0x3e52bb43	0.20579247
5	0xbcc04ff2	-0.02347562
6	0xbe1d44be	-0.15358254
7	0x3e535f51	0.20641829
8	0xbce0235f	-0.027360616
9	0xbb4dd9c8	-0.0031410325
10	0xbde3026e	-0.11084448
11	0xbde2c3dc	-0.110725135
12	0xbe702a0d	-0.23453541
13	0x3be78401	0.0070652966
14	0xbdf86a6d	-0.12129674
15	0x3d35e0dc	0.044403896
16	0x3c8fd1a2	0.017556015
17	0xbd026fff	-0.03184509
18	0xbd928577	-0.07154363
19	0x3dd683d8	0.10474366
20	0xbd4877e0	-0.048942447
21	0x3e069baf	0.13145326
22	0x3e1ca54b	0.1529743
23	0x3dfd0645	0.123547114
24	0xbdb474d2	-0.08811344
25	0xbd9c8d30	-0.07644117
26	0xbe11a60f	-0.14223503
27	0xbe387f7f	-0.18017386
28	0x3e00e8bb	0.1258878
29	0x3d25b133	0.040452193
30	0xbc65deb2	-0.0140301455
31	0x3c2f74b2	0.010708975
32	0xbc5691bf	-0.013096272
33	0xbe6b99ca	-0.23007885
34	0xbe30b23f	-0.17255495
35	0xbe933592	-0.28751808
36	0xbddeeaa2	-0.108845964
37	0xbc75c49a	-0.015000487
38	0x3d68a548	0.05679825
39	0xbcc8d7bd	-0.024516935
40	0x3ddede14	0.10882202
41	0x3cb1ee3b	0.021720042
42	0x3ca0e2bb	0.019639364
43	0xbd239dcd	-0.039945412
44	0xbdac555d	-0.08414719
45	0xbc374070	-0.011184797
46	0xbd231e31	-0.039823715
47	0xbdb96109	-0.09051711
48	0xbd721a5a	-0.059107162
49	0xbd9e13e6	-0.07718639
50	0x3cb84bad	0.022497023
51	0xbcda8714	-0.026675738
52	0xbae36e71	-0.001735164
53	0xbda12779	-0.07868857
54	0x3d28d78e	0.041221194
55	0xbe3418cd	-0.17587586
56	0x3cd1d65e	0.025614914
57	0x3c1194c0	0.008885562
58	0xbda1de12	-0.07903685
59	0x3d9e6bbe	0.07735394
60	0x3d13ec60	0.036114097
61	0xbde0952f	-0.109659545
62	0xbe5a5d58	-0.2132467
63	0x3daa2d39	0.08309407
64	0xbc2809fb	-0.010256286
65	0x3e2b34b9	0.16719331
66	0x3d71b0fb	0.059006672
67	0x3cd8f80d	0.026485467
68	0xbd8efb31	-0.06981505
69	0x3d7bc7aa	0.06146971
70	0xbda53322	-0.080663934
71	0x3c54f211	0.012997166
72	0x3cf16b62	0.02947015
73	0xbbec3bca	-0.007209276
74	0x3e10885c	0.14114517
75	0x3d149d8b	0.036283057
76	0x3dd0303e	0.101654515
77	0x3d17dfb6	0.03707858
78	0xbe38e955	-0.18057759
79	0xbe469c62	-0.19395593
80	0xbdd4b02f	-0.10385167
81	0xbe3d0d94	-0.18462211
82	0x3d8f00ed	0.069825985
83	0xbde9dbdc	-0.11418888
84	0xbde28e88	-0.11062342
85	0xbd168643	-0.036749136
86	0xbd536429	-0.051609192
87	0xbe4c87af	-0.19973634
88	0xbd99eba0	-0.07515645
89	0xbbbe39d3	-0.005805233
90	0xbc238ef1	-0.00998281
91	0x3d1c77a6	0.038200043
92	0x3d7177c8	0.058952123
93	0xbdafdcb0	-0.08587015
94	0xbd643aba	-0.05572007
95	0xbe52cef4	-0.20586759
96	0x3d2461c7	0.04013231
97	0xbaaa467a	-0.0012990974
98	0x3da24f1f	0.079252474
99	0xbcb07c2c	-0.021543585
100	0xbd44d363	-0.048053157
101	0x3df7b59d	0.12095187
102	0xbdede80c	-0.11616525
103	0xbdacdf42	-0.084410205
104	0xbcc41dac	-0.02393993
105	0xbd29a2ab	-0.041414898
106	0xbd9a631a	-0.075384334
107	0x3ddc08f4	0.10743895
108	0xbe0e8295	-0.13917
109	0x3dacd1be	0.08438443
110	0xbd96c97f	-0.07362651
111	0xbc55d6ba	-0.013051683
112	0x3dbefa14	0.09325042
113	0x3da2fcfe	0.07958411
114	0xbcba4b8b	-0.0227411
115	0xbcb714fc	-0.022348873
116	0x3b332661	0.0027336108
117	0x3c57875f	0.013154834
118	0x3e016b1d	0.12638517
119	0xbe2b3c10	-0.16722131
120	0xbd8bd025	-0.0682681
121	0xbcce597a	-0.02518915
122	0xbc60bb35	-0.013716509
123	0x3db3d063	0.08779981
124	0xbd230ff9	-0.039810155
125	0x3ea1f7ce	0.31634372
126	0xba3bd645	-0.00071654125
127	0x3d14b60d	0.03630643
128	0x3da800e2	0.082032934
129	0x3e2e3d92	0.17015675
130	0xbd69b5a4	-0.05705799
131	0x3c832797	0.016010089
132	0x3dca552e	0.09879528
133	0xbcf44165	-0.029816339
134	0xbcb06353	-0.021531736
135	0xbe9523ac	-0.29128778
136	0xbe05b345	-0.13056667
137	0x3ec75aa2	0.38936335
138	0x3c2b8a03	0.010469916
139	0xbe2dbc39	-0.16966332
140	0x3dc2c945	0.09511045
141	0x3e1a402c	0.15063542
142	0xbe02f083	-0.1278706
143	0x3e0b9fff	0.13635252
144	0x3e114c2a	0.1418921
145	0x3e249a11	0.16074397
146	0x3cd41ff4	0.025894143
147	0xbb1836ed	-0.0023226098
148	0x3d348ca5	0.04407944
149	0x3d6bd972	0.05758042
150	0xbdb04e69	-0.086087056
151	0xbd7f00c8	-0.062256604
152	0x3d0ee2e5	0.034884352
153	0x3c806b16	0.015676063
154	0x3d93b21b	0.07211705
155	0xbd822ee7	-0.06356602
156	0xbe6a4b4f	-0.2288029
157	0xbda0029a	-0.07812996
158	0x3e3ca108	0.18420804
159	0xbe2b7f37	-0.16747747
160	0xbc996fff	-0.018730162
161	0xbd5ca315	-0.053866465
162	0x3b9cca7e	0.004784881
163	0x3e357630	0.17720866
164	0x3ddb4498	0.107064426
165	0x3d43b9dd	0.047784675
166	0xbc52b7c3	-0.012861195
167	0xbdbba523	-0.09162357
168	0x3ddb541d	0.10709403
169	0xbcb210f0	-0.021736592
170	0x3d3b36fc	0.045706734
171	0xbe165704	-0.14681631
172	0x3c126676	0.008935561
173	0x3d53d236	0.051714145
174	0x3e50a3a4	0.20374924
175	0xbe02177e	-0.12704274
176	0xbcfe891f	-0.031071244
177	0xbe892a0d	-0.26789895
178	0xbca43c6b	-0.02004834
179	0x3c960fa7	0.01831801
180	0xbe106ee0	-0.14104795
181	0x3d680382	0.05664397
182	0x3e358ce6	0.1772953
183	0x3d847171	0.0646695
184	0x3b923809	0.0044622463
185	0x3d63e75c	0.055640563
186	0xbb609fc8	-0.0034274925
187	0xbcc1e05e	-0.023666557
188	0x3e1fcbe1	0.15605117
189	0xbd13ebcd	-0.03611355
190	0xbe176fa1	-0.14788677
191	0xbd022b97	-0.03177985
192	0x3b3ed3ac	0.0029117865
193	0xbd9c6212	-0.07635893
194	0x3d9b7a16	0.075916454
195	0x3dea976e	0.11454664
196	0xbc59ff61	-0.013305516
197	0xbd22ae8e	-0.03971725
198	0xbe45d347	-0.19318877
199	0xbe3e0605	-0.18556984
200	0xbdea3194	-0.114352375
201	0x3e854d43	0.2603551
202	0x3dc1012a	0.0942405
203	0x3c0c6e06	0.0085711535
204	0xbe3f0c02	-0.18656924
205	0x3dce4b02	0.100729
206	0xbda19c81	-0.07891179
207	0x3ca3012e	0.019898023
208	0x3d4de443	0.050266515
209	0xbe147de6	-0.14501151
210	0xbaa46ab9	-0.0012544013
211	0x3e1dbe98	0.15404737
212	0x3d02cf0a	0.03193573
213	0xbd9cfd9c	-0.0766556
214	0xbbc11a48	-0.0058930255
215	0xbdf155b8	-0.11783928
216	0xbdf047d3	-0.117324494
217	0xbdb6a18f	-0.089175336
218	0x3ac1af28	0.0014776932
219	0xba5ae5c0	-0.00083502755
220	0xbe021e79	-0.12706937
221	0x3e05cb80	0.1306591
222	0xbd19d8e6	-0.037560366
223	0xbdf54570	-0.11976135
224	0xbddb998b	-0.10722645
225	0xbe44271b	-0.19155543
226	0x3dc19e70	0.09454048
227	0x3ca5a3b7	0.020219667
228	0x3dde8668	0.1086548
229	0x3dbae12e	0.09124981
230	0x3bc7f1c9	0.006101821
231	0x3dc213f4	0.09476462
232	0x3e42b51b	0.19014399
233	0x3d6b92bc	0.057512984
234	0xbd9a735d	-0.07541535
235	0x3d9127a7	0.07087641
236	0xbd655493	-0.05598886
237	0xbdcc813e	-0.099855885
238	0xbc638513	-0.013886708
239	0x3e38c136	0.18042454
240	0xbb3d24e5	-0.0028861102
241	0xbdbf2bc8	-0.093345225
242	0xbd8c4918	-0.06849879
243	0x3e22f856	0.15915045
244	0xbdbf6e03	-0.09347155
245	0x3cbda6cc	0.023150824
246	0xbe1bf46b	-0.15229957
247	0xbda3d869	-0.08000261
248	0x3e4d1b92	0.20030048
249	0xbe156746	-0.14590177
250	0x3e340cdf	0.17583035
251	0xbd3a36b6	-0.045462333
252	0xbdafe54a	-0.08588655
253	0xbac2a4ac	-0.0014850101
254	0xbddd4a00	-0.1080513
255	0x3e025345	0.12727077

blocks.0.attn.W_O f4 [3, 28, 56]
0	0x3d8e9819	0.06962604
1	0xbe1b25f3	-0.15151195
2	0xbdcbc26d	-0.09949193
3	0xbd2f5461	-0.04280508
4	0xbce23228	-0.027611807
5	0x3cddc95b	0.027073553
6	0xbd000086	-0.0312505
7	0xbe0e87ac	-0.13918942
8	0x3d64266f	0.055700716
9	0x3e3a8317	0.1821407
10	0x3d30b615	0.043142397
11	0x3d4a7591	0.049428526
12	0x3e31eac5	0.17374714
13	0xbd032983	-0.03202201
14	0x3b583458	0.0032990184
15	0x3a31ff45	0.0006790052
16	0x3d8037dc	0.06260654
17	0xbdfeccea	-0.12441428
18	0xbd2f7980	-0.04284048
19	0x3e232fba	0.15936175
20	0xbc7d8980	-0.015474677
21	0xbdc356dc	-0.095380515
22	0xbda8cc64	-0.082421094
23	0xbc481714	-0.0122125335
24	0x3d689b17	0.05678853
25	0xbdf0e2e1	-0.11762024
26	0xbdf8389e	-0.12120174
27	0xbdc16084	-0.09442237
28	0x3e05fc18	0.13084447
29	0xbd49fd48	-0.049313813
30	0x3d411610	0.04714018
31	0xbe9404b7	-0.28909847
32	0x3e759699	0.2398323
33	0xbe06358c	-0.13106364
34	0xbe50e81a	-0.2040104
35	0x3d9d7f9e	0.07690357
36	0x3e0d4442	0.1379557
37	0x3e1f48ef	0.15555166
38	0x3d87d433	0.06632271
39	0xbd964097	-0.07336538
40	0x3da001d9	0.078128524
41	0xbda43143	-0.080172084
42	0x3db97542	0.09055568
43	0xbdf579bd	-0.1198611
44	0x3dcec56d	0.1009625
45	0xbdd950ba	-0.106111005
46	0x3ceccd9e	0.02890664
47	0xbc304ce1	-0.010760517
48	0xbd6bb016	-0.057540976
49	0x3db5d29c	0.08878061
50	0xbd3a3fd8	-0.045471042
51	0xbbc7dfd4	-0.0060996804
52	0xbd7762b3	-0.06039686
53	0x3ca99cb4	0.020704605
54	0x3e43dc4d	0.19127007
55	0xbde91013	-0.11380019
56	0x3e0f0b7a	0.13969222
57	0x3e187ffa	0.14892569
58	0x3d4e9d56	0.050443016
59	0x3e158617	0.14601932
60	0x3e41a9ee	0.1891248
61	0x3d994d38	0.074854314
62	0x3e43b95d	0.19113679
63	0xbdcf85b2	-0.10132922
64	0xbd874c34	-0.066063315
65	0x3e2334b7	0.15938078
66	0xbdd0fc8c	-0.102044195
67	0xbdbf362f	-0.093365066
68	0xba856872	-0.0010178222
69	0x3ce458b0	0.02787432
70	0xbe279d34	-0.16368562
71	0xbdf03cf2	-0.117303744
72	0xbd254eae	-0.040358238
73	0x3d6b7fb3	0.05749483
74	0xbbcbec96	-0.0062232716
75	0xbccb4046	-0.024810921
76	0x3c529c97	0.012854717
77	0xbc3a8d83	-0.011386278
78	0x3d735c12	0.059413977
79	0xbda9d6f0	-0.08292949
80	0x3e50c9c7	0.20389472
81	0xbe12ec9e	-0.14348075
82	0x3dd8c73c	0.10584876
83	0x3d8e890f	0.069597356
84	0xbe4dc29b	-0.20093767
85	0xbe0d383f	-0.13790987
86	0xbdd140fe	-0.102174744
87	0xbe2a4748	-0.16628754
88	0xbdf5767b	-0.11985489
89	0xbcb79c2f	-0.022413341
90	0x3d1fc161	0.03900278
91	0x3c0aca4a	0.008471081
92	0x3e037273	0.12836628
93	0x3e2dc284	0.16968733
94	0x3d22ff4c	0.03979425
95	0xbde23c6d	-0.110466816
96	0xbd12e960	-0.035867095
97	0xbc1f2e51	-0.009715633
98	0xbd01a840	-0.031654596
99	0x3d99a1c2	0.07501556
100	0x3e2ebff8	0.17065418
101	0x3d446a28	0.0479528
102	0xbced589c	-0.028972916
103	0x3e220251	0.15821196
104	0xbe065f44	-0.13122278
105	0xbdad45e1	-0.08460594
106	0x3dd6f37f	0.10495662
107	0x3e2b6c3a	0.16740504
108	0x3e305809	0.17221083
109	0x3ceb8486	0.028749716
110	0x3b1d7c4e	0.002403039
111	0xbcf418a4	-0.029796906
112	0x3e177737	0.1479157
113	0x3ddff210	0.10934842
114	0xbd72c363	-0.059268367
115	0x3e867a84	0.26265347
116	0xbe4eff79	-0.20214643
117	0x3dd5af14	0.10433784
118	0xbdcf94a6	-0.10135774
119	0xbda55872	-0.0807351
120	0xbdfb690c	-0.122758955
121	0x3c939ab7	0.01801811
122	0x3dca2c51	0.09871734
123	0xbdaaa989	-0.083331175
124	0x3de83e61	0.11340023
125	0x3d2e844b	0.042606633
126	0x3cf1212f	0.029434768
127	0x3d77f98f	0.060540732
128	0x3cbb6948	0.02287735
129	0xbd2c6f47	-0.04209831
130	0xbdd6fcd8	-0.10497445
131	0xbd523766	-0.051322363
132	0xbb89dd04	-0.0042072553
133	0x3da07303	0.07834437
134	0xbd040dc5	-0.032239694
135	0xbe1e2106	-0.15442285
136	0xbc051c03	-0.008124354
137	0xbd4ef5ed	-0.0505275
138	0x3c9244e8	0.017855123
139	0x3d578541	0.052617315
140	0xbd5a5b66	-0.05330982
141	0x3d52db71	0.051478807
142	0x3ddde580	0.10834789
143	0x3bf3edff	0.007444143
144	0xbd6a6dd7	-0.057233658
145	0xbe0783a6	-0.13233814
146	0xbdc198ef	-0.09452998
147	0x3e49a5b9	0.19692124
148	0xbbfb93bc	-0.0076775234
149	0x3e87448d	0.26419488
150	0x3dcc247a	0.09967895
151	0x3d863be6	0.065543935
152	0x3b9a5fe6	0.004711139
153	0x3d17f95f	0.037103053
154	0x3e380d51	0.1797383
155	0x3d13f880	0.03612566
156	0xbdc45df3	-0.09588232
157	0xbd3f50bb	-0.04670785
158	0xbdcce96f	-0.100054614
159	0x3b9adbab	0.0047258935
160	0x3e3cdb4b	0.18443029
161	0x3d13f4a2	0.036121972
162	0x3e806adb	0.25081524
163	0xbd71abae	-0.059001617
164	0xbd2d11f1	-0.04225344
165	0x3e43afd7	0.19110046
166	0xbbf63c0f	-0.0075144838
167	0x3dfe9d8a	0.12432392
168	0x3d6cf214	0.05784805
169	0xbd53a051	-0.05166656
170	0x3dc4d9da	0.096118644
171	0x3d76216d	0.06009047
172	0x3e577dbd	0.21044059
173	0x3dbea6ff	0.09309196
174	0xbcadf619	-0.021235513
175	0x3d8cbc75	0.06871883
176	0x3dee25b4	0.11628285
177	0xbd9ab1db	-0.075534545
178	0x3a4b617f	0.00077583635
179	0x3e36b374	0.17841893
180	0x3d23730a	0.03990463
181	0x3defd60b	0.11710747
182	0x3d04261b	0.032262903
183	0xbd59b19a	-0.05314789
184	0xb9d1c34b	-0.0004000909
185	0x3e29606f	0.16540693
186	0x3dd136c1	0.102155216
187	0xbe20f57d	-0.15718646
188	0x3d2ff045	0.04295375
189	0xbdd6da5a	-0.10490866
190	0x3d36edfe	0.04466056
191	0xbdfe8be3	-0.12429025
192	0x3ca0ab46	0.01961292
193	0xbc0d79c9	-0.008634993
194	0xbe16b06c	-0.14715737
195	0xbcfa961c	-0.030589156
196	0x3dfcb8ef	0.12339961
197	0xbddda1fa	-0.1082191
198	0x3cbf0f73	0.023322796
199	0x3dbe5059	0.09292669
200	0xbe121ceb	-0.14268844
201	0xbca0009c	-0.01953154
202	0x3de8bb95	0.113639034
203	0x3d9924d7	0.0747773
204	0x3e52adb8	0.20574081
205	0xbe0490e3	-0.12945895
206	0xbe4d40d7	-0.20044266
207	0x3d1fd5e5	0.039022345
208	0x3d2e24b9	0.04251549
209	0x3cef2b17	0.029195352
210	0x3c32def2	0.010917412
211	0x3d66345b	0.056202274
212	0xbdcb1f7d	-0.09918115
213	0xbdd62bfd	-0.10457609
214	0xbd510baa	-0.051036514
215	0xbd6ccd5b	-0.05781303
216	0xbe143a37	-0.14475332
217	0xbd3fc0e4	-0.046814814
218	0x3d576e03	0.05259515
219	0xbda5029a	-0.08057137
220	0xbdb1214a	-0.086489275
221	0x3c88e6f0	0.016711682
222	0x3dfe04e1	0.12403274
223	0x3c92b382	0.017907862
224	0x3ce221b3	0.02760396
225	0x3e08a4d5	0.13344128
226	0x3e3963ec	0.18104523
227	0x3e77df1a	0.242062
228	0xbe04053e	-0.12892625
229	0xbe1ea1df	-0.15491436
230	0xbca9f186	-0.02074505
231	0xbd6d95a8	-0.05800405
232	0x3dadc4a6	0.08484773
233	0xbba21a35	-0.004946972
234	0x3c739edb	0.014869417
235	0x3e81a5d9	0.25321844
236	0xbdbc4bc6	-0.0919414
237	0xbd040736	-0.03223344
238	0xbea1f8b0	-0.31635046
239	0xbda6c5ab	-0.08143171
240	0x3cc1e047	0.023666514
241	0xbe4574a5	-0.19282778
242	0xbd9085e4	-0.070567876
243	0x3ca5eff7	0.020256026
244	0xbcb2b3bd	-0.021814222
245	0x3dd59a21	0.104297884
246	0xbcb97018	-0.022636458
247	0xbde7dc80	-0.11321354
248	0x3d581e9c	0.052763566
249	0xbe48d099	-0.19610824
250	0xbe29f231	-0.16596295
251	0x3cd1603b	0.025558582
252	0xbd2bd8c9	-0.04195479
253	0xbdbf5a70	-0.093434215
254	0x3e3a0345	0.1816531
255	0xbc667a34	-0.014067221

blocks.0.attn.b_Q f4 [3, 28]
0	0xbd9fb7a0	-0.077986956
1	0x3d3fe551	0.046849553
2	0x3d3fc330	0.046817005
3	0x3cebce00	0.028784752
4	0xbd1caeea	-0.03825275
5	0x3ca84d13	0.020544564
6	0x3c28d528	0.010304727
7	0xbd33554b	-0.043782514
8	0xbd8164a5	-0.063180245
9	0xbd120144	-0.03564574
10	0x3d554c74	0.052074865
11	0x3d6f20a3	0.058380734
12	0x398ef84d	0.0002726935
13	0xbd8f7067	-0.07003861
14	0xbc2ab797	-0.010419748
15	0x3d00570f	0.031333026
16	0x3c66e8bc	0.014093574
17	0x3b3f001c	0.0029144352
18	0xbc647b78	-0.013945453
19	0xbbe73075	-0.007055337
20	0x3db34257	0.08752888
21	0xbd6ae00e	-0.05734258
22	0xbb8cc3a1	-0.0042957817
23	0xbbeff732	-0.007323169
24	0x3d83111d	0.063997485
25	0x3a743d0f	0.000931696
26	0x3cf21410	0.029550582
27	0x3bad21fa	0.0052835913
28	0xbc89a055	-0.016800085
29	0xbcda7c9e	-0.02667075
30	0x3cbd03d7	0.02307312
31	0xbcf0c223	-0.029389447
32	0xbc4e50d6	-0.012592515
33	0xbcab0ddc	-0.020880632
34	0x3cc9d464	0.024637409
35	0x3c984153	0.018585837
36	0x3c2dd9df	0.010611027
37	0xbca20456	-0.019777458
38	0x3d5eb24d	0.05436926
39	0xbd04192c	-0.03225057
40	0xbd468c66	-0.048473738
41	0xbd21c9ad	-0.039498974
42	0xbc30ce73	-0.010791409
43	0xbd742a12	-0.059610434
44	0xbb8540c9	-0.004066561
45	0x3c7f1e0b	0.015571128
46	0x3c24bc6b	0.010054688
47	0xbd05cd26	-0.032666348
48	0x3daa847d	0.083260514
49	0x3a4bbf9d	0.0007772388
50	0x3ccf7f69	0.025329309
51	0x3c799581	0.015233398
52	0x3bf6086c	0.007508328
53	0x3d2a969f	0.04164755
54	0xbd79464d	-0.06085806
55	0x3d6f62c5	0.058443803
56	0x3b865875	0.0040999004
57	0xbbc2eccb	-0.005948638
58	0x3c0f75a8	0.008756079
59	0x3bdc60f3	0.0067254244
60	0xbd194a9f	-0.03742468
61	0xbba0e024	-0.004909532
62	0x3c0a49a3	0.008440408
63	0xbd1b3ccc	-0.037899777
64	0xbc987a46	-0.018612992
65	0xbcedfaf4	-0.029050328
66	0xbc91de8a	-0.01780631
67	0xbc591b2c	-0.013251107
68	0xbbf375c9	-0.0074298126
69	0xbb90f616	-0.004423867
70	0x3caa2339	0.020768749
71	0xbaa0695f	-0.0012238434
72	0x3c399313	0.011326569
73	0x3cbf9fcd	0.023391629
74	0xbc4a2fa6	-0.012340462
75	0xbcac4fef	-0.021034209
76	0x3d3c5289	0.04597715
77	0x3b416e1e	0.0029515098
78	0x3c1dd25c	0.009632673
79	0x3cd2977d	0.025707
80	0xbd11eb28	-0.035624653
81	0xbcbf3dcd	-0.023344899
82	0xbd65697c	-0.0560088
83	0xbd0e675a	-0.034766532
